deep_learning_tps/models/model.pth (torch, 5885 bytes, 6 tensors)

network.0.weight f4 [30, 2]
00000000: 95ca 063f 9472 1e3f 6fd8 23be 372b 213f
00000010: d27d 21be 32cf 1b3e 6c6f b0be d38b d53e
00000020: 27aa 223f 2647 06bf c42d 1e3f 6aea 053e
00000030: e4b7 073f a807 b43d ebfa ad3e 2b56 cbbd
00000040: 8d6f 093f 0e1f de3d 7b5b a3be 20dc 113e
00000050: 18c9 a7be 34e0 9abd 2ebf 93be a1cd f23e
00000060: 5cda 0ebf c86f a7be 0e76 4cbe 13af d9be
00000070: 4e22 5e3d fa41 31bf 1cb5 223f 8e66 19bf
00000080: c10b 0d3f b20c ec3d b0da 78be be62 f73e
00000090: c79f d43d 97ef 173f c536 a23d a549 65be
000000a0: a45c 493e 239d 47be 5575 973e 6d37 233f
000000b0: a012 d63e cb90 a0be 42b2 d63e 5233 f83d
000000c0: 69ad b33e 7daa dabe 4c31 33bf a1e0 8bbe
000000d0: 37c4 09bf c709 113f f261 4f3e aaa5 983e
000000e0: 9e1f 5b3e 18f5 fbbb 5cdd 103f 5b25 02bf
0.52652866 0.6189358 -0.16000532 0.62956566 -0.15770653 0.15215757 -0.34460008 0.4170824
0.6354088 -0.52452314 0.6178858 0.13077703 0.5301497 0.08790523 0.33980498 -0.099285446
0.5368584 0.10845767 -0.31905732 0.14244127 -0.3277061 -0.075622946 -0.28856796 0.47422507
-0.5580194 -0.3270247 -0.1996691 -0.42516384 0.054231934 -0.692413 0.635576 -0.5992211
0.5509606 0.11525859 -0.24302173 0.48317522 0.103820376 0.5934996 0.07920603 -0.22391374
0.19664246 -0.19493537 0.29581705 0.6375645 0.41811085 -0.31360468 0.41932875 0.121191636
0.3509324 -0.42708197 -0.69997096 -0.27319816 -0.53815025 0.56655544 0.20252207 0.29813892
0.2139878 -0.0076891296 0.5658777 -0.5083825

network.0.bias f4 [30]
00000000: a12c 573d a8bd fabe bbac 623e c0a5 78be
00000010: 7a3d 633e 1b66 15be d669 163f 78d6 d6be
00000020: e3c0 d9be 76be debe 857e 233f 1935 733e
00000030: 2214 2e3f 1664 15bf daf0 34bf 7ef5 0dbf
00000040: 096a f2be 81fc 9a3e 38a7 853e 1ea0 163f
00000050: 117c b9be 35ac f5be 742c c23e 89db 8fbe
00000060: c4e9 d93e f2d2 2bbe b4ad cc3e 4124 0cbf
00000070: 69d9 b8be a150 623e
0.052532796 -0.4897282 0.22136204 -0.24281979 0.2219142 -0.14589731 0.5875524 -0.41960502
-0.42529973 -0.43504685 0.6386493 0.23750724 0.6799947 -0.58355844 -0.7068001 -0.55452716
-0.47346523 0.3027077 0.2610414 0.5883807 -0.36227468 -0.47982946 0.3792454 -0.2809718
0.42561162 -0.16779688 0.39976275 -0.5474282 -0.3610337 0.2210107

network.2.weight f4 [20, 30]
00000000: 7918 1e3d 0baa 3ebd a2e0 de3d 5330 fe3d
00000010: 5393 07be a49e c7bd 3f30 2b3e 0f57 7cbd
00000020: d38e 84bd c8e5 34be d320 d6bd 24cf 3a3d
00000030: 506a c5bc 6eb5 07be f054 8c3b 8e69 ffbd
00000040: e19c 1ebe 3ae6 cdbd 49a0 23be 7e15 eebd
00000050: 02e2 3a3e c53e 0d3d fe72 663d f35e 2ebe
00000060: 5893 f5bd e3ea 78bd 48e0 e93c ac81 24be
00000070: cb1b a1bd 6dd9 dfbd 6ba2 043a 4322 8bbd
00000080: bb48 4fbc b35f fdbd 5f53 00be 1124 dabd
00000090: 6afa 7fbd 8f8f 13be c7c1 1c3e 886a 14bd
000000a0: 37db 203e 2e02 693d 5250 1ebe 4f61 013e
000000b0: 86c2 4dbd 8754 8fbd c72f 1bbe 40dd 39be
000000c0: daf5 553d 885b 23bd 9392 913d 8d6d 19be
000000d0: 33cd 0a3e 583c 09be 1621 01bd 9f32 1c3d
000000e0: 5f08 c13d 76ee 163e 2c4f 2a3e d43d 14be
000000f0: 9ccf c93d 45e5 73bc a77c 5a3c 4d77 abbd
00000100: 92b1 193e 0f7e 11be ea41 d33d 19d2 783d
00000110: aa5b 5e3d 9e3d afbd ac6c 473e 1603 f23d
00000120: b2e6 063d 7fc1 24be d519 9a3d 9a6b 1ebd
00000130: 1602 b5bd 823f 6f3e c1b2 f33d febf ddbd
00000140: eb95 c1bd 2564 1b3d da09 b83d 95e8 4ebd
00000150: 507c eebd 210b 80bd ffdf ecbc a827 903d
00000160: 3c93 0f3e 6e30 3fbe 704e 433d 08b3 af3d
00000170: 991f e93c 5e27 93bd 1d46 173e 755d fa3d
00000180: 0674 d53d de9c abbc 0df8 01bd 36c6 973c
00000190: dd4e 14bd 4797 85bd 3d66 ed3d 7dab 203e
000001a0: 71a1 58bc fa8f 83bb 9493 933c 285a b2bc
000001b0: 0e3e 043d bf41 993d b7e0 22be 8a26 98bd
000001c0: 8775 453e cae0 aa3d 5367 ff3c 046f e1bd
000001d0: 895a 01be cc44 28be 212a 64bd ceb7 e03d
000001e0: c910 0c3e 3642 e83d 19d1 15be 8440 afbd
000001f0: 8fd8 3ebd 36b9 2b3e 1511 a93c 1b1e 51bd
00000200: 892c 8f3d de38 81bd 850e d7bd 04d0 2c3e
00000210: e2db a0bd f0e9 15bd a9a8 3bbe bdab e03d
00000220: 8750 083e 5a56 cf3d 4079 bcbd 20ba 40be
00000230: 6531 1abe bce8 203e d860 983d 030b 193e
00000240: 71f5 a73d b344 3d3d d353 413d 34c7 0bbe
00000250: 737e 21be 6f8e 3fbe b910 993d 2b94 b7bd
00000260: 6180 16bd 3330 d7bd 6845 08bd 0d96 03be
00000270: e651 f4bd af0f 783d 2440 5ebd fdd4 e63d
00000280: 90e8 6fbd 1025 09be fbf1 03bd ba40 b5bd
00000290: 58ca 64bd 34fb 31be 4933 d13d db28 02be
000002a0: 4cef bb3d e3ac a93d 4591 053e ab67 0fbe
000002b0: 4875 063e 79c4 b0bd 48bf 8a3d b692 2f3e
000002c0: 19ef d2bc 8a10 b9ba 022c 2cbd f81a 1cbe
000002d0: a570 143e 6437 eebd f8a9 163e 4917 433e
000002e0: 32ce 303e 7765 30bd bd32 07be 2922 283d
000002f0: 258f ce3d b8e9 2bbe d820 46bc 7520 f6bc
00000300: 2e2d cebb 640b b8bd d4d7 98bd 4067 6dbd
00000310: 3eaa 31be 1b14 693e b901 6e3e ef9e eabc
00000320: d453 aabc 26fc debc 3ed5 28be 66ef 35be
00000330: b0f7 8a3d 7f4b cdbd 3b41 02bc f526 12bc
00000340: 9f08 79bd c2ef 71bd 1a20 3e3a 4762 36bd
00000350: d8d7 86bd 4dbf bcbd 5f26 18be 90c3 1c3e
00000360: 253e 99bd 7128 463d 15bc 81bd 8082 5e3c
00000370: bd9f 2b3e b1ca 9d3d 04d8 22be 1d68 943d
00000380: 7477 313e 70bd 443d 07ae fa3d f84f 313e
00000390: b7a4 0fbd d436 1b3d e3f0 01be 3370 2bbd
000003a0: e174 0a3e 34af bf3d 7c9b ecbd cdea 15be
000003b0: a0bd 09be a7f9 38be 3443 10be 56ef 38bd
000003c0: 2f13 063e 4958 fa3c 2133 0ebe 05fb 15be
000003d0: 3956 f33d a95e f9bd e4b9 a3ba c08a bf3d
000003e0: 51e0 9abd d515 a3bc 1830 82bc 34ec 30bd
000003f0: db95 bdbd e3a8 26be 1c78 14be 5ae7 9fbd
0.038597558 -0.046548884 0.10882689 0.12411561 -0.13239793 -0.09747055 0.16717623 -0.061606463
-0.06472554 -0.1766578 -0.104554795 0.0456077 -0.024098545 -0.13252804 0.0042825863 -0.12471305
-0.15489532 -0.10053678 -0.15979113 -0.11625193 0.18250278 0.03448369 0.05626201 -0.17028408
-0.11990994 -0.06077088 0.028549328 -0.16065091 -0.07866629 -0.109301426 0.00050596026 -0.06793644
-0.012651618 -0.12371769 -0.12531804 -0.1065141 -0.062494673 -0.14410232 0.15308295 -0.03623441
0.15708624 0.056886844 -0.15460327 0.12634777 -0.05023434 -0.06998544 -0.15154944 -0.18150806
0.052236415 -0.039882213 0.07108035 -0.14983197 0.1355484 -0.13401926 -0.031525694 0.038134214
0.09425425 0.14739403 0.16631764 -0.1447671 0.098540515 -0.014886205 0.0133353835 -0.08372364
0.15009144 -0.14208244 0.103153065 0.06074724 0.054286636 -0.085566744 0.19475049 0.11816995
0.032934852 -0.16089438 0.07524458 -0.038676836 -0.088382885 0.2336407 0.11899329 -0.10827635
-0.09452423 0.037937302 0.08986254 -0.050514776 -0.116448045 -0.06252123 -0.028915403 0.07038814
0.14021009 -0.18670818 0.047682226 0.085790694 0.02845745 -0.07185243 0.1477284 0.12224857
0.1042252 -0.020948824 -0.0317307 0.018527132 -0.036208022 -0.065229945 0.11591766 0.15690418
-0.013222084 -0.004014966 0.018014707 -0.021771505 0.032285742 0.07483243 -0.15906034 -0.07429226
0.19283114 0.08343656 0.031177199 -0.11007503 -0.12632193 -0.16432494 -0.05570424 0.10972558
0.13678278 0.11340754 -0.14630546 -0.08557227 -0.046593245 0.16769871 0.020638028 -0.0510541
0.06990916 -0.06309675 -0.10500816 0.16876227 -0.07854439 -0.036600053 -0.18326057 0.109702565
0.13311969 0.10123892 -0.09202814 -0.18821001 -0.15057905 0.15713781 0.074403465 0.14945607
0.08201111 0.046208095 0.04719908 -0.13650209 -0.15770893 -0.18706678 0.07473893 -0.08963808
-0.036743525 -0.1050724 -0.033269316 -0.12850209 -0.119296834 0.060561832 -0.054260388 0.11271093
-0.0585714 -0.13393044 -0.032213192 -0.08850236 -0.055857033 -0.17380983 0.1021486 -0.12710898
0.09176502 0.08284929 0.13043697 -0.1400439 0.13130677 -0.08631224 0.06774765 0.1714581
-0.025748776 -0.0014119309 -0.042034157 -0.15244663 0.14496095 -0.11631659 0.14713275 0.19051851
0.17266157 -0.043065514 -0.13202949 0.041048203 0.100858964 -0.16788375 -0.0120927915 -0.030044774
-0.006292007 -0.089865476 -0.07463041 -0.057959795 -0.17350098 0.22761576 0.23242845 -0.028640239
-0.020791925 -0.027219843 -0.16487595 -0.17767105 0.06785524 -0.10024165 -0.0079501225 -0.008920421
-0.060799237 -0.05906654 0.00072527083 -0.04452732 -0.06584138 -0.09216175 -0.14858387 0.15308976
-0.07482556 0.04837841 -0.06334702 0.013580918 0.16760154 0.07704676 -0.15902716 0.072464205
0.17330724 0.048032224 0.12240224 0.17315662 -0.035069194 0.037894085 -0.12689547 -0.04185505
0.13521148 0.09359589 -0.11553094 -0.1464035 -0.13451242 -0.18063985 -0.14088136 -0.045150124
0.13093255 0.030559676 -0.13886692 -0.14646538 0.1188168 -0.12176258 -0.0012491313 0.09352636
-0.07562316 -0.019907871 -0.015892074 -0.04319401 -0.09257098 -0.16275363 -0.14498943 -0.07807799

network.2.bias f4 [20]
00000000: edbf 6b3d 70f7 333e 6803 893d ea57 483e
00000010: 587f 413d 95f2 d73d 0bec 423e 4e32 183e
00000020: 3fa4 b7bd 6aa6 353e c080 e23d a0af b8bd
00000030: f99b b2bd c67f 1abe f9e9 2f3d 7a89 17be
00000040: 1bf3 9d3d 3a29 6c3d 816d 22be 5b2e 893d
0.05755608 0.17574859 0.06690103 0.19564787 0.047240585 0.10544316 0.19035356 0.1486294
-0.08966874 0.17739263 0.11059713 -0.09017873 -0.08721156 -0.15087804 0.042947743 -0.14798537
0.07712384 0.057656504 -0.15862085 0.06698295

network.4.weight f4 [2, 20]
00000000: effa 94bc bc32 d13d 5e26 353e 2cf1 93be
00000010: 6212 7f3e d406 403e 1df6 233e 3186 4fbe
00000020: f7d7 d1bd f053 9dbd fa61 6bbd 87bf e13d
00000030: 3766 933d 4482 313e f929 d0bd 051e 9a3d
00000040: 6aef a23d 20a4 3ebe d31b 5ebe 42bf 04be
00000050: 41be 1c3e b691 57be d012 79be bd85 443e
00000060: 13ea 9c3d 574e 3c3e acb7 75be 8755 29be
00000070: 8b96 0c3e 766d 533e ef00 093e 4a79 503d
00000080: 3b06 aa3d 2b34 5d3e 9168 01be c8e9 cfbd
00000090: c828 203e 32ac 1cbe 8084 fcbd 7715 353e
-0.01818606 0.10214755 0.17690417 -0.28894937 0.24909356 0.18752605 0.16011854 -0.20266034
-0.1024627 -0.076820254 -0.057466485 0.11022859 0.0719723 0.17334849 -0.10164256 0.07525257
0.07955821 -0.18617296 -0.21690302 -0.12963584 0.15306951 -0.21051678 -0.24323583 0.19191642
0.076618336 0.1838926 -0.23995847 -0.16536532 0.13729303 0.20647225 0.13379262 0.05089692
0.083019696 0.21601932 -0.12637545 -0.10152012 0.15640557 -0.15300062 -0.1232996 0.1768397

network.4.bias f4 [2]
00000000: c4b8 3f3e 3201 36bd
0.18722826 -0.044434734
